checkpoint.pt (torch, 14818 bytes, 39 tensors)

encoder.conv1.att f4 [1, 1, 4]
0	0xbee0944c	-0.43863142
1	0xbe292f04	-0.16521841
2	0xbf63f7d1	-0.8905001
3	0x3ea4bb6c	0.32174242

encoder.conv1.bias f4 [4]
0	0x3d6eaa98	0.05826816
1	0x00000000	0.0
2	0xbd06814d	-0.032838155
3	0xbd2f2fe8	-0.042770296

encoder.conv1.lin_l.weight f4 [4, 1]
0	0x3f5aec03	0.85516375
1	0xbf11ced4	-0.5695622
2	0xbeb45dc6	-0.35227793
3	0x3e49b073	0.19696216

encoder.conv1.lin_l.bias f4 [4]
0	0xbf2f8c4f	-0.6857347
1	0xbf3fce57	-0.74924225
2	0x3f495ce3	0.7865736
3	0x3e9e86dc	0.30962265

encoder.conv1.lin_r.weight f4 [4, 1]
0	0x3f577cf8	0.8417506
1	0xbe4d58a7	-0.2005335
2	0x3c9bfbd1	0.019040974
3	0x3e4020f3	0.18762569

encoder.conv1.lin_r.bias f4 [4]
0	0x3f4bbce4	0.795851
1	0xbee7ce39	-0.45274523
2	0x3e11e2de	0.14246699
3	0x3e11d250	0.14240384

encoder.conv1.lin_edge.weight f4 [4, 1]
0	0x3ce29382	0.027658228
1	0x3ee534bc	0.44766796
2	0xbf3ac623	-0.7295858
3	0x3b238250	0.0024949498

encoder.lin1.weight f4 [4, 1]
0	0x3f42a1c3	0.7602808
1	0xbc4914c6	-0.012273019
2	0x3e915ae7	0.28389665
3	0xbf28f4f8	-0.6599879

encoder.lin1.bias f4 [4]
0	0xbd3312e8	-0.043719202
1	0xbec70f2a	-0.38878757
2	0x3e0a1368	0.13483965
3	0xbc1dc781	-0.009630085

encoder.conv2.att f4 [1, 1, 6]
0	0xbb20d72a	-0.002454231
1	0x3e77e2ff	0.24207686
2	0x3eb082b5	0.34474722
3	0xbddcd19b	-0.107821666
4	0x3edbb8a1	0.42914298
5	0x3e735cfa	0.23765936

encoder.conv2.bias f4 [6]
0	0x00000000	0.0
1	0x00000000	0.0
2	0x3d6d6ac9	0.057963166
3	0x3dec6c88	0.11544138
4	0x3b531762	0.0032209982
5	0x3d3f3e92	0.04669053

encoder.conv2.lin_l.weight f4 [6, 4]
0	0xbe55c4d1	-0.20875861
1	0x3ec17d9b	0.37791142
2	0x3ce1563c	0.02750694
3	0x3e88aab7	0.26692745
4	0xbe46859a	-0.19386902
5	0x3ec11960	0.37714672
6	0xbee7d0c8	-0.45276475
7	0x3c102097	0.0087968325
8	0x3ed24181	0.410656
9	0xbc8834d7	-0.016626759
10	0xbea8bad8	-0.3295505
11	0xbdde84aa	-0.108651474
12	0x3b1562f0	0.0022794567
13	0xba5b7018	-0.000837089
14	0xbeea221b	-0.45729145
15	0x3cba8758	0.022769615
16	0x3b8916a3	0.0041836067
17	0x3efcf361	0.49404433
18	0xbee26edf	-0.44225213
19	0x3d49f5f3	0.04930682
20	0x3ed64720	0.4185114
21	0xbc117f80	-0.008880496
22	0x3e1bc2cd	0.1521103
23	0xbf04b246	-0.51834524

encoder.conv2.lin_l.bias f4 [6]
0	0xbcd0d5ac	-0.025492512
1	0xbe80fd7f	-0.25193402
2	0x3d75c593	0.060002875
3	0xbe42c0d7	-0.19018875
4	0x3e9a1f1f	0.3010187
5	0x3e963017	0.29333565

encoder.conv2.lin_r.weight f4 [6, 4]
0	0xbb7764be	-0.0037749256
1	0xbe81e357	-0.2536876
2	0x3bccded7	0.0062521505
3	0xbf0bc1d3	-0.5459263
4	0xbf10d497	-0.56574386
5	0x3ea49a48	0.32148957
6	0x3f06f787	0.52721447
7	0xbd30f324	-0.043200627
8	0xbe8c00d0	-0.2734437
9	0x3dfd1f0e	0.12359439
10	0x3f050462	0.5195981
11	0xbf0272b2	-0.5095626
12	0x3e0c8104	0.1372109
13	0x3f131467	0.57453007
14	0xbef967a3	-0.4871188
15	0xbab0bb4c	-0.0013483553
16	0xbb630450	-0.0034640022
17	0xbbfe9155	-0.00776879
18	0xbbbdf2f2	-0.0057967836
19	0xbe97ae8c	-0.29625356
20	0xbe8824de	-0.26590627
21	0x3db67c69	0.08910448
22	0xbe9e0893	-0.30865917
23	0xbe6289d8	-0.22122896

encoder.conv2.lin_r.bias f4 [6]
0	0xbbfcf470	-0.007719569
1	0x3cdea1d9	0.027176784
2	0xbdec2a81	-0.115315445
3	0xbe2cdcb3	-0.16881065
4	0x3e8cca6e	0.27498192
5	0xbb2a93fa	-0.0026028142

encoder.conv2.lin_edge.weight f4 [6, 1]
0	0x3e4a4fbd	0.1975698
1	0x3e90f882	0.28314596
2	0x3da3ec19	0.080040164
3	0xbefba217	-0.49147102
4	0x3e3ca684	0.18422896
5	0x3c12b63e	0.008954583

encoder.lin2.weight f4 [6, 4]
0	0xbe8cfc89	-0.2753642
1	0xbb25c8fb	-0.0025296796
2	0x3e015148	0.12628663
3	0x3da59a44	0.080860645
4	0xbe2cb514	-0.16865951
5	0xbe662f85	-0.22479065
6	0x3d4bc494	0.04974802
7	0xbdc6b757	-0.09702938
8	0xbdd15f18	-0.10223216
9	0xbcbdc917	-0.023167176
10	0x3eda7193	0.42664775
11	0x3dd064e2	0.10175492
12	0x3de2c065	0.110718526
13	0x3e002ac1	0.1251631
14	0x3e714496	0.2356132
15	0xbcbb5aa6	-0.022870373
16	0xbcd454b9	-0.025919305
17	0xbcb32b33	-0.021871185
18	0x3ce9f3a9	0.028558569
19	0xbd91b116	-0.071138546
20	0x3e1abc20	0.15110826
21	0xbd91ce2c	-0.07119402
22	0xbe0aa318	-0.13538778
23	0x3c19c822	0.009386094

encoder.lin2.bias f4 [6]
0	0xbe384056	-0.17993292
1	0x3cdbd0e7	0.02683301
2	0x3f010d95	0.5041135
3	0x3db885ca	0.09009893
4	0xbdb2dc69	-0.08733446
5	0xbe56718b	-0.2094175

encoder.conv3.att f4 [1, 1, 6]
0	0xbcb29ef1	-0.021804305
1	0xba70d8fc	-0.00091876066
2	0xbcd16aa6	-0.02556355
3	0xbe3cef48	-0.18450654
4	0xbf356f07	-0.7087254
5	0xbf328669	-0.69736344

encoder.conv3.bias f4 [6]
0	0x3d5699c1	0.052392725
1	0xbd7ea0c9	-0.062165055
2	0xbd967626	-0.07346754
3	0xbd6aacd2	-0.05729372
4	0x3d42c134	0.047547534
5	0x00000000	0.0

encoder.conv3.lin_l.weight f4 [6, 6]
0	0xbc91fb7e	-0.017820116
1	0x3bfe12c3	0.0077537014
2	0x3e98b78a	0.2982753
3	0xbedaca5f	-0.42732522
4	0xbef362cf	-0.47536322
5	0x3bdda593	0.0067641228
6	0xbce10957	-0.027470274
7	0xbee1aa85	-0.4407541
8	0xbca8bedb	-0.02059882
9	0x3efa193b	0.48847374
10	0xbdcfa7a6	-0.10139398
11	0x3edee0d5	0.43530908
12	0xbe713b0c	-0.23557681
13	0x3e80342d	0.25039807
14	0x3d724451	0.059147183
15	0x3deaad93	0.11458888
16	0x3e37c3e9	0.17945828
17	0xbe9baceb	-0.30405363
18	0xbec67137	-0.3875825
19	0x3ea0bbb4	0.31393206
20	0x3d699ab1	0.05703229
21	0x3ea9ab23	0.3313838
22	0xbebd6dda	-0.36997873
23	0x3ea7960e	0.3273167
24	0x3e91178b	0.28338274
25	0x3c0691f2	0.008213507
26	0x3ebf2d9a	0.3733948
27	0x3edf91cf	0.4366593
28	0x3e95e9f0	0.29280043
29	0x3f0cba94	0.54972196
30	0xbcfe2066	-0.031021308
31	0x3e97d40b	0.29653963
32	0xbec5f42f	-0.3866286
33	0x3ef95e5f	0.48704812
34	0x3edf208a	0.43579513
35	0x3cbf59ba	0.023358215

encoder.conv3.lin_l.bias f4 [6]
0	0x3e627098	0.22113264
1	0xbdf519a5	-0.11967782
2	0xbda02e74	-0.0782136
3	0x3e76c9de	0.24100444
4	0x3ec8897b	0.3916739
5	0x3e1ff3b5	0.1562031

encoder.conv3.lin_r.weight f4 [6, 6]
0	0x3ec46627	0.38359186
1	0xbedca8fe	-0.4309768
2	0xbcadcbe1	-0.021215381
3	0x3e67b512	0.22627667
4	0x3eaac373	0.3335224
5	0xbeb6899a	-0.35651857
6	0xbcdfcc40	-0.027319074
7	0xbedcad2e	-0.43100876
8	0xbb8429c5	-0.0040332996
9	0xbef1ef3b	-0.4725283
10	0x3ec5d021	0.38635352
11	0x3e9f30ab	0.31091818
12	0xbea64204	-0.3247224
13	0x3d8d720b	0.069065176
14	0xbe07e25c	-0.13269943
15	0xbe96fb81	-0.29488757
16	0x3bd9b943	0.0066443994
17	0xbcd4257a	-0.025896776
18	0xbbecc464	-0.00722556
19	0xbcdef720	-0.027217448
20	0xbe6cf082	-0.23138621
21	0xbe4665c8	-0.19374764
22	0x3e28b482	0.16475108
23	0x3ec3d878	0.3825109
24	0xbeb3c910	-0.35114336
25	0xbeb7e369	-0.35915688
26	0xbe823ad1	-0.25435498
27	0x3ec2df4a	0.3806098
28	0xbe71675d	-0.23574586
29	0xbecd1a7f	-0.40059277
30	0x3d91af1f	0.0711348
31	0x3d9c812a	0.076418236
32	0x3ccb408f	0.024811057
33	0x3c6a868c	0.014314305
34	0x3dbd3f62	0.09240605
35	0xbefe6946	-0.49689692

encoder.conv3.lin_r.bias f4 [6]
0	0xbc3a441c	-0.011368778
1	0xbe5c418b	-0.21509378
2	0xbacc6efc	-0.0015597041
3	0x3985e6c4	0.0002553967
4	0x3dfd9c73	0.12383356
5	0xbb18572a	-0.0023245313

encoder.conv3.lin_edge.weight f4 [6, 1]
0	0xbe8386f0	-0.25688887
1	0x3ce2a4fe	0.027666565
2	0x3f2e27b6	0.68029344
3	0x3ef7d748	0.48406434
4	0xbf1434ac	-0.5789287
5	0x3e117c9f	0.14207695

encoder.lin3.weight f4 [6, 6]
0	0xbc9de659	-0.019274877
1	0xbd2ea0e7	-0.042633917
2	0x3d4f6268	0.050630957
3	0xbb9a18c0	-0.0047026575
4	0xbc97e9dc	-0.01854413
5	0xbde1eb06	-0.11031155
6	0xbc98a43c	-0.018633
7	0x3cbae34f	0.022813467
8	0xbe60c59a	-0.21950379
9	0xbdbe85d2	-0.09302868
10	0x3ad9f488	0.0016628662
11	0x3e885bbf	0.26632497
12	0xbe5470e6	-0.20746192
13	0x3d917132	0.071016684
14	0x3d9d9072	0.076935664
15	0xbb996794	-0.004681537
16	0xbd8653a1	-0.0655892
17	0xbe444d2c	-0.19170064
18	0x3e124eb8	0.14287841
19	0xbd805328	-0.06265861
20	0xbea8a620	-0.32939243
21	0x3cdadd39	0.026716815
22	0xbb039318	-0.0020076688
23	0x3e468db5	0.19389994
24	0x3c37525a	0.011189068
25	0xbcd3fda1	-0.025877776
26	0x3eb40d69	0.3516648
27	0xbe1208fd	-0.14261241
28	0x3da3b3b7	0.07993262
29	0x3ecb3d0f	0.39695022
30	0x3d0f3c3d	0.034969557
31	0x3e08d08b	0.13360803
32	0xbd5a574a	-0.0533059
33	0x3c49409c	0.0122834705
34	0x3c305a15	0.010763665
35	0xbe401848	-0.18759263

encoder.lin3.bias f4 [6]
0	0xbe6db588	-0.2321378
1	0x3a79f124	0.0009534529
2	0x3bb45174	0.005502874
3	0x3e183ad4	0.14866191
4	0xbe6f6f21	-0.23382236
5	0x3ce0dbdf	0.027448593

encoder.conv4.att f4 [1, 1, 6]
0	0x3e5af8e2	0.21384004
1	0x3f23f2b4	0.6404221
2	0x3d9c6c78	0.07637876
3	0x3ee227bd	0.44170943
4	0x3f245634	0.64194036
5	0x3e7a9bb8	0.24473464

encoder.conv4.bias f4 [6]
0	0x3d965ef5	0.0734233
1	0xbd89d806	-0.06730656
2	0x3e558160	0.20850134
3	0xbd48f495	-0.049061377
4	0xbba6066c	-0.0050666835
5	0xbd1e740a	-0.038684882

encoder.conv4.lin_l.weight f4 [6, 6]
0	0x3c987715	0.01861147
1	0xbe987201	-0.29774478
2	0x3d2e331e	0.042529218
3	0x3c05b732	0.008161353
4	0xbe90a450	-0.2825036
5	0xbd82368f	-0.063580625
6	0xbc636d9c	-0.013881113
7	0x3eb4b482	0.35293967
8	0x3cb1bd38	0.021696672
9	0xbd8feea7	-0.07027941
10	0xbf1bca81	-0.6085587
11	0xbe5a3bab	-0.21311824
12	0xbe6f89ad	-0.23392363
13	0x3edffda3	0.43748197
14	0x3eed81cd	0.46388093
15	0xbd1aaebb	-0.037764292
16	0xbe005984	-0.12534148
17	0xbe8189ac	-0.25300348
18	0x3ed5a357	0.4172618
19	0x3e5214aa	0.20515695
20	0x3e3a98e6	0.18222389
21	0x3e62a06d	0.2213151
22	0x3d552fa7	0.052047398
23	0x3aeeaae4	0.0018208888
24	0xbc872230	-0.016495794
25	0x3cdc2b2b	0.026876053
26	0x3e7aab7a	0.24479476
27	0x3dfeb173	0.124361895
28	0xbee00065	-0.437503
29	0x3b67891a	0.0035329522
30	0x3ce3030a	0.02771141
31	0x3eaa687d	0.33282843
32	0xbec619bb	-0.38691506
33	0xbde8b1e0	-0.11362052
34	0xbdb51fc7	-0.08843952
35	0x3c4c9001	0.012485505

encoder.conv4.lin_l.bias f4 [6]
0	0x3bfc1772	0.0076932246
1	0x3e9c14ad	0.30484524
2	0xbe7af8d6	-0.24508986
3	0x3d7485e4	0.059698
4	0x3ba2fb65	0.004973816
5	0xbe841051	-0.25793698

encoder.conv4.lin_r.weight f4 [6, 6]
0	0x3cbd5c82	0.0231154
1	0xbdbaabd6	-0.09114806
2	0x3cc8487c	0.024448626
3	0x3c85fdad	0.016356314
4	0xbe202362	-0.15638497
5	0xbef89918	-0.485543
6	0xbe8a4d3a	-0.27012044
7	0x3cdef04b	0.02721419
8	0x3ec68222	0.38771158
9	0x3e9b0de7	0.30284044
10	0x3c3a3e40	0.011367381
11	0xbef3a7c9	-0.47588947
12	0xbe1d8530	-0.15382838
13	0x3ce2acb4	0.027670242
14	0xbe4489b2	-0.19193152
15	0xbe467228	-0.19379485
16	0xbcce9e3e	-0.02522194
17	0x3e5e2472	0.2169359
18	0x3d8e7c51	0.06957305
19	0x3e524174	0.20532781
20	0x3cd09da3	0.025465792
21	0x3da9748f	0.08274185
22	0xbed42e1e	-0.41441435
23	0xbdda60e0	-0.10663009
24	0xbc4be676	-0.012445083
25	0x3e8340ee	0.25635475
26	0xbeaa432e	-0.3325438
27	0x3ebd8392	0.37014443
28	0x3e975b9d	0.29562083
29	0x3e6cdd76	0.23131356
30	0x3bfdd6b8	0.0077465437
31	0xbbcbc7ca	-0.006218885
32	0x3dd7a458	0.10529393
33	0x3f00c9d4	0.50307965
34	0xbce245c2	-0.027621154
35	0xbeac9ca9	-0.33713272

encoder.conv4.lin_r.bias f4 [6]
0	0xbcd07d97	-0.02545051
1	0xbbf77ac0	-0.0075524747
2	0xbe4c4df6	-0.19951615
3	0x3d250b40	0.040293932
4	0xbdb89937	-0.090135984
5	0xbe53f13c	-0.20697492

encoder.conv4.lin_edge.weight f4 [6, 1]
0	0x3ec2066c	0.37895525
1	0xbda125c4	-0.07868531
2	0xbdaf3690	-0.08555329
3	0xbd5413fd	-0.051776875
4	0xbc84415c	-0.016144447
5	0xbe8e1744	-0.27752125

encoder.lin4.weight f4 [6, 6]
0	0x3c709772	0.014684545
1	0x3d097c22	0.033565648
2	0x3cdcea97	0.02696733
3	0x3e60515a	0.21906033
4	0x3e4cf360	0.20014715
5	0xbe3b8cd3	-0.18315439
6	0xbd82b3fa	-0.06381984
7	0xbea96913	-0.33087978
8	0x3d5f72ef	0.05455297
9	0x3e486dc5	0.19573124
10	0xbe812675	-0.25224653
11	0x3e3a2cd0	0.18181157
12	0xbe44e08d	-0.19226284
13	0x3dc06639	0.093944974
14	0x3d61976e	0.055076055
15	0x3cf13e04	0.029448517
16	0xbe5dc10c	-0.21655673
17	0xbcb2242b	-0.021745762
18	0xbdc6cde3	-0.097072385
19	0x3e226531	0.15858914
20	0xbe3fe348	-0.18739045
21	0xbe40da16	-0.18833193
22	0xbea7b988	-0.32758737
23	0xbc94aea1	-0.018149676
24	0xbe540099	-0.20703353
25	0xbce01234	-0.02735243
26	0x3aa1ce33	0.0012344777
27	0xbb3c88dc	-0.0028768098
28	0xbe2ab547	-0.16670714
29	0x3c9c0583	0.019045597
30	0x3d4301cb	0.04760913
31	0xbda390ac	-0.07986578
32	0x3e3a9a72	0.18222979
33	0x3d06b525	0.032887597
34	0x3e3e59fb	0.18589012
35	0xbda45b1d	-0.08025191

encoder.lin4.bias f4 [6]
0	0xbde23209	-0.110447
1	0x3e1ada68	0.15122378
2	0x3f095f96	0.5366148
3	0xbe586ce4	-0.21135288
4	0x3aac8304	0.0013161604
5	0xbe4f918f	-0.2027037

decoder.lin1.weight f4 [12, 12]
0	0x3dd83602	0.10557176
1	0x3ddd93df	0.1081922
2	0x3bfba5f2	0.0076796943
3	0x3c7056b3	0.014669108
4	0xbb9d8674	-0.004807288
5	0x3ca0ffd5	0.01965324
6	0xbcba0b5f	-0.0227105
7	0x3e0e97cd	0.13925095
8	0xbe4be126	-0.19910106
9	0xbc7b8d8c	-0.015353572
10	0xbbd426b8	-0.006474342
11	0x3be2f328	0.006925959
12	0xbcba6634	-0.022753812
13	0x3d1ad9fb	0.03780554
14	0xbc6851ef	-0.014179691
15	0xbcff8c5e	-0.031194862
16	0x3ca07604	0.019587524
17	0x3c7af704	0.015317682
18	0x3c285dac	0.010276239
19	0xbd8798e6	-0.0662096
20	0x3be6573e	0.007029443
21	0xbc1fb103	-0.009746793
22	0x3db50c5e	0.088402495
23	0xbdc30a78	-0.09523481
24	0xbc727aee	-0.0147998165
25	0xbc9eb1e1	-0.019371929
26	0x3d42a80d	0.047523547
27	0xbccc9ed5	-0.02497808
28	0xbc48f259	-0.012264811
29	0xbb3d5a74	-0.0028893026
30	0x3cc2b117	0.023766084
31	0x3daed3ac	0.08536467
32	0x3d03d7a3	0.03218807
33	0xbd1e2ed0	-0.038618863
34	0x3b70ba32	0.0036732075
35	0xbab72554	-0.0013972917
36	0x3d917bbc	0.071036786
37	0x3d890737	0.06690829
38	0xbd46db8d	-0.048549224
39	0xbabb8e6e	-0.0014309415
40	0xbdafe916	-0.085893795
41	0xbcb886e8	-0.022525266
42	0xbc976cbd	-0.018484468
43	0x3cbc692e	0.022999372
44	0x3a5614f4	0.00081665744
45	0xbd5fc26a	-0.054628767
46	0xbc939ad3	-0.018018162
47	0x3a7efbc8	0.00097268494
48	0x3dc67380	0.096899986
49	0x3d323b41	0.04351354
50	0x3da31bb2	0.07964267
51	0xbc6a51a2	-0.014301689
52	0x3b2228f3	0.0024743646
53	0xbad99a06	-0.0016601689
54	0x3d5f549b	0.054524045
55	0x3d727111	0.05918986
56	0x3d1c6518	0.038182348
57	0xbc0f81be	-0.00875896
58	0xbc186e41	-0.00930363
59	0x399a4518	0.00029424648
60	0x3d2084ea	0.039189257
61	0xbd26febc	-0.040770277
62	0x3e26c0e3	0.16284518
63	0xbd8294d4	-0.06376043
64	0x3ce3c413	0.027803456
65	0x3ce0c95b	0.027439764
66	0xbb505324	-0.0031787837
67	0x3d69b5c8	0.057058126
68	0x3ddb51d8	0.1070897
69	0x3cdef97a	0.02721857
70	0xbbff6f88	-0.007795278
71	0xbcdf1e27	-0.027236057
72	0x3e5858c3	0.2112761
73	0xbe64bfee	-0.2233884
74	0xbef97d59	-0.48728445
75	0xbdb9ddff	-0.090755455
76	0x3da6be24	0.08141735
77	0x3d209cd6	0.03921207
78	0xbde45be7	-0.111503415
79	0xbd8679d6	-0.06566207
80	0xbe6fa080	-0.2340107
81	0xbcd113d7	-0.025522156
82	0x3bfb4829	0.0076685143
83	0xbd7b835c	-0.06140457
84	0xbdae1d95	-0.08501736
85	0xbd5e97ef	-0.054344114
86	0x3e7f8c15	0.24955781
87	0xbd373384	-0.044726864
88	0x3d3c5b70	0.04598564
89	0xbdd25bd3	-0.1027142
90	0x3c8b97ca	0.017040152
91	0x3e184798	0.14871061
92	0xbc5bf647	-0.013425416
93	0xbd89b0f3	-0.067232035
94	0xbcc3a20e	-0.023880985
95	0xbcdfc331	-0.027314754
96	0xbd5375c5	-0.051625986
97	0xbe205cd7	-0.15660416
98	0x3d9df086	0.07711892
99	0x3c56cdde	0.013110606
100	0x3d79779d	0.060905088
101	0x3cb71790	0.022350103
102	0x3d818fa6	0.06326227
103	0x3d96cbd8	0.07363099
104	0xbc826b20	-0.015920222
105	0xbbc07333	-0.005873108
106	0x3cdc02c1	0.026856782
107	0x3c56961a	0.01309731
108	0x3dc0c517	0.09412592
109	0xbd4d6bd4	-0.05015166
110	0xbdfdaa56	-0.123860046
111	0xbcdb68bf	-0.026783345
112	0xbbc0dbd6	-0.0058855815
113	0xbc138a6e	-0.009005172
114	0x3a895042	0.0010476189
115	0x3d762f9c	0.060103998
116	0xbebb7384	-0.3661157
117	0x3c1645b9	0.009171897
118	0x3c5c15b6	0.013432911
119	0xbc200688	-0.009767182
120	0x3db34716	0.08753793
121	0xbc9b82e8	-0.01898332
122	0x3d3e7702	0.046500213
123	0xbca51918	-0.020153567
124	0xbc221cd2	-0.009894567
125	0xbcd4f6c1	-0.025996568
126	0xbbe21aa5	-0.006900149
127	0x3bed12e8	0.00723492
128	0xbc98ae6e	-0.018637862
129	0xbcb2dd63	-0.021834081
130	0x3b5fe94e	0.003416616
131	0xbb821f94	-0.0039710496
132	0xbbf2b2c5	-0.007406565
133	0x3d725a2a	0.05916802
134	0x3bf1d49e	0.0073800823
135	0xbc1efeb1	-0.009704278
136	0x3c14678e	0.0090578925
137	0xbb8314f6	-0.0040003015
138	0x3dc51377	0.09622853
139	0xbd9a3aad	-0.07530723
140	0x3b3898b4	0.002816719
141	0x3cd74490	0.02627781
142	0xbbb2dcbc	-0.0054584425
143	0xbda038df	-0.07823347

decoder.lin1.bias f4 [12]
0	0x3ea5cbc4	0.32382023
1	0xbdb021bd	-0.08600185
2	0x3b808fba	0.0039233835
3	0xbb3895d6	-0.002816548
4	0x3b345a88	0.002751978
5	0xbb5851ac	-0.0033007665
6	0x3ecaf33f	0.39638707
7	0x3e042277	0.12903772
8	0x3e2d9b04	0.16953665
9	0x3e830f96	0.2559783
10	0xbd10d0de	-0.03535544
11	0xbd9f712c	-0.07785258

decoder.lin2.weight f4 [1, 12]
0	0x3e7c489e	0.24637076
1	0xbca2bee7	-0.01986642
2	0xbd463144	-0.048386827
3	0x3b824d60	0.003976509
4	0xbd6790d7	-0.056534614
5	0xbdf59d70	-0.119929194
6	0x3eef8521	0.46781257
7	0x3d4012c6	0.046892904
8	0x3dfcbc25	0.12340573
9	0x3e576874	0.2103594
10	0x3b7af8f4	0.003829536
11	0xbd7aaec3	-0.061201822
