checkpoint.pt (torch, 14818 bytes, 39 tensors)

encoder.conv1.att f4 [1, 1, 4]
0	0xb4ac5347	-3.209809e-07
1	0x3492d6f4	2.7351018e-07
2	0xb51e7b3a	-5.9038905e-07
3	0xb5b50759	-1.3487689e-06

encoder.conv1.bias f4 [4]
0	0x3cef8929	0.029240208
1	0x3d1b4925	0.037911553
2	0x3eb03086	0.3441202
3	0x3e8c804d	0.27441636

encoder.conv1.lin_l.weight f4 [4, 1]
0	0x3c489739	0.012243086
1	0x3f4c5ffc	0.7983396
2	0xbed3eb34	-0.41390383
3	0xbf1a0f09	-0.6017919

encoder.conv1.lin_l.bias f4 [4]
0	0x3986696b	0.00025637014
1	0x3f6b6cf2	0.9196311
2	0xbed5e05f	-0.41772744
3	0xbf500ef4	-0.81272817

encoder.conv1.lin_r.weight f4 [4, 1]
0	0x35bdc344	1.4138427e-06
1	0xbb6c3431	-0.003604185
2	0xb35af10e	-5.097632e-08
3	0x37655b8e	1.367078e-05

encoder.conv1.lin_r.bias f4 [4]
0	0x3b4af219	0.0030967055
1	0xb7202e97	-9.547591e-06
2	0xb4df8760	-4.1635485e-07
3	0x33251c6a	3.84429e-08

encoder.conv1.lin_edge.weight f4 [4, 1]
0	0x36bf0b01	5.6935246e-06
1	0x346015ad	2.0869511e-07
2	0xb64c9ada	-3.0488504e-06
3	0x3681c7b3	3.8677476e-06

encoder.lin1.weight f4 [4, 1]
0	0x3de24c2c	0.11049685
1	0x3ca6e58d	0.02037313
2	0x3e999b89	0.30001476
3	0x3f0d1123	0.55104274

encoder.lin1.bias f4 [4]
0	0x3b8ea148	0.0043527223
1	0x3e320228	0.17383635
2	0x3e9842a6	0.2973835
3	0x3f13206f	0.57471365

encoder.conv2.att f4 [1, 1, 6]
0	0xbf4e951a	-0.8069626
1	0x3a995fde	0.0011701544
2	0x3f153a30	0.5829191
3	0xbf2f84d0	-0.6856203
4	0xbf24ea82	-0.6442033
5	0x3f04a56a	0.518149

encoder.conv2.bias f4 [6]
0	0x3e052dc7	0.13005744
1	0x3e840859	0.2578762
2	0x3d0ee113	0.034882616
3	0x3e230645	0.1592036
4	0x3d34ec60	0.044170737
5	0x3e23b180	0.1598568

encoder.conv2.lin_l.weight f4 [6, 4]
0	0x390d7f7e	0.00013494302
1	0x3f1b674d	0.607045
2	0xbe7ea513	-0.24867658
3	0xbea25a79	-0.3170965
4	0xbd1dc5f9	-0.03851888
5	0xbe0fcec0	-0.14043713
6	0xbda80f62	-0.08206059
7	0xbde1ca14	-0.110248715
8	0x3d12c1cf	0.03582936
9	0xbeb85854	-0.3600489
10	0x3ebdd9bc	0.3708018
11	0x3f2c3099	0.67261654
12	0x3d0d455d	0.034489978
13	0x3f3ee5ad	0.7456921
14	0xbe9d7e44	-0.30760396
15	0xbf13744c	-0.5759933
16	0x3d4dab58	0.050212234
17	0x3f20187f	0.6253738
18	0xbe223c84	-0.15843397
19	0xbee83b5e	-0.45357794
20	0x3d098cee	0.033581667
21	0xbee64265	-0.4497253
22	0x3eef7abf	0.46773335
23	0x3f295815	0.6615003

encoder.conv2.lin_l.bias f4 [6]
0	0x3e1e278d	0.15444775
1	0xbe14b5ec	-0.14522523
2	0x3e17e062	0.14831689
3	0x3e1199fe	0.142189
4	0x3d5b0218	0.053468794
5	0x3e9b4697	0.30327293

encoder.conv2.lin_r.weight f4 [6, 4]
0	0x3c90e5c0	0.017687678
1	0x3c118135	0.008880903
2	0x3c672b81	0.014109493
3	0x3b7d19af	0.0038620045
4	0xb4d519b9	-3.9693057e-07
5	0xb773a668	-1.4522673e-05
6	0xb70ec6ef	-8.510177e-06
7	0x376138e7	1.3424294e-05
8	0x3bd765bf	0.0065734084
9	0x3deeef89	0.116667815
10	0x3ba5b6c5	0.005057188
11	0x38bc5662	8.9806286e-05
12	0x3d02a394	0.03189428
13	0x3e0c857f	0.137228
14	0x3ccec9a6	0.025242638
15	0x3b7fbc8d	0.0039022297
16	0x3c8842ee	0.016633477
17	0x3e003592	0.12520435
18	0x3c9c8c32	0.01910982
19	0x3bd67a78	0.006545361
20	0x3c287c71	0.010283575
21	0x3de6c46a	0.11267932
22	0xbbe2378e	-0.0069035953
23	0x3b9084bf	0.004410356

encoder.conv2.lin_r.bias f4 [6]
0	0x3d0fd21e	0.035112493
1	0xb5366f7f	-6.796253e-07
2	0x3d5728e2	0.052529223
3	0x3deb5311	0.11490453
4	0x3db15c78	0.08660215
5	0x3d604cee	0.054760866

encoder.conv2.lin_edge.weight f4 [6, 1]
0	0x3eb46964	0.35236657
1	0xb8249622	-3.924047e-05
2	0x3dc557b0	0.09635866
3	0x3e8f62ee	0.28005165
4	0x3e748c15	0.23881562
5	0x3dcf2e8a	0.101162985

encoder.lin2.weight f4 [6, 4]
0	0x3d04ac11	0.032390658
1	0x3c123803	0.008924487
2	0x3e6a168e	0.22860166
3	0x3e916090	0.28393984
4	0x3d933ebd	0.07189701
5	0xbe0430b4	-0.12909204
6	0x3ef4f83e	0.47845644
7	0x3f1268bc	0.5719106
8	0x3cddfb33	0.02709732
9	0x3c61281d	0.013742474
10	0xbd503ab7	-0.050837245
11	0xbd91cc74	-0.071190745
12	0x3d5911a2	0.05299533
13	0x3d97c9e2	0.07411553
14	0x3e93d9d7	0.28877136
15	0x3ed20e29	0.41026428
16	0x3ce7e496	0.02830724
17	0x3ba858b7	0.0051375288
18	0x3e13f1c8	0.14447701
19	0x3e175134	0.1477707
20	0x3d8095ef	0.062785976
21	0x3e69f3b0	0.22846866
22	0x3ba2a954	0.004964033
23	0xbcc99b59	-0.024610208

encoder.lin2.bias f4 [6]
0	0x3e18153d	0.14851852
1	0x3e8b189c	0.27167213
2	0x3ccf0f7e	0.025275942
3	0x3e20e865	0.15713651
4	0x3d3a5eb6	0.04550048
5	0x3e102a3b	0.1407861

encoder.conv3.att f4 [1, 1, 6]
0	0xbf795b26	-0.97404706
1	0x3ee2502f	0.442018
2	0x3f6c7b7a	0.9237591
3	0xbed4d32a	-0.41567355
4	0xbf53a148	-0.8266797
5	0x3f0a69d1	0.54067713

encoder.conv3.bias f4 [6]
0	0x3dd2f420	0.103004694
1	0x3ec1c0a9	0.378423
2	0x3d929fc9	0.07159383
3	0x3ee40d29	0.4454129
4	0x3eac9f44	0.3371526
5	0x3ec62009	0.38696316

encoder.conv3.lin_l.weight f4 [6, 6]
0	0x3e516ba8	0.20451224
1	0x3e97e22d	0.29664746
2	0xbf01d017	-0.50708145
3	0x3f1f1016	0.6213392
4	0x3f1164fd	0.5679472
5	0xbf01099a	-0.50405276
6	0xbd387fd2	-0.045043774
7	0x3e4e86e6	0.20168647
8	0x3de4cb76	0.111716196
9	0xbcff6256	-0.03117482
10	0xbd78cec8	-0.060744077
11	0x3e0efb57	0.13963066
12	0x3e079062	0.13238671
13	0x3f0f3580	0.5594101
14	0xbe83185f	-0.2560453
15	0x3e9cec94	0.30649245
16	0x3e59993c	0.2124986
17	0xbe39575a	-0.18099728
18	0xbe9f8b8c	-0.31161153
19	0x3e444bd1	0.19169547
20	0x3e9ea917	0.3098838
21	0xbecfe88e	-0.40607113
22	0xbf095ad5	-0.53654224
23	0x3e9106f7	0.28325626
24	0xbdf90fec	-0.1216124
25	0x3e7deb3d	0.24796768
26	0x3df3695a	0.118853286
27	0xbed3a6db	-0.41338238
28	0xbee237e5	-0.4418327
29	0xbd0055be	-0.03133177
30	0xbeb3ec6d	-0.35141316
31	0x3e01ac56	0.12663397
32	0x3e82729c	0.25478065
33	0xbf0cb57e	-0.54964435
34	0xbf232e03	-0.63742083
35	0x3d530b82	0.051524647

encoder.conv3.lin_l.bias f4 [6]
0	0x3d2c5ba8	0.042079598
1	0x3dc5fd89	0.096674986
2	0xbd97855c	-0.07398483
3	0x3daf71b4	0.08566609
4	0x3e2133ad	0.15742369
5	0xbc17123a	-0.009220654

encoder.conv3.lin_r.weight f4 [6, 6]
0	0x3db47457	0.088112526
1	0x3dcd00ca	0.10009916
2	0xbe217c88	-0.15770161
3	0xbaf3bd45	-0.0018595835
4	0xbd1c8e5e	-0.03822171
5	0xbc8d1d69	-0.017225938
6	0xbde800ea	-0.11328299
7	0x3db91428	0.090370476
8	0x3c7ce518	0.01543548
9	0xbe1f17ce	-0.15536425
10	0xbe0de676	-0.13857445
11	0x3cac7c26	0.021055292
12	0xbe09a688	-0.13442433
13	0xbdbf93c3	-0.09354355
14	0xbc9b68e0	-0.018970907
15	0x3d90a664	0.070629865
16	0x3ddfd8be	0.10930012
17	0xbe0e2a7b	-0.13883393
18	0xbd19a83e	-0.037513964
19	0xbda5ce76	-0.0809602
20	0x3d7fac71	0.062420312
21	0x3cb08e3f	0.021552203
22	0x3d1b4f4d	0.037917424
23	0x3bcf046e	0.0063176667
24	0x3d84c6d2	0.064832345
25	0xbdcc7cdd	-0.09984753
26	0x3db0cf18	0.0863325
27	0x3c98999a	0.01862793
28	0x3cc38210	0.02386573
29	0xbd4c761f	-0.049917337
30	0x3c93cb9d	0.018041426
31	0x3db1f177	0.08688634
32	0x3db6411c	0.088991374
33	0xbdbcdc45	-0.092217006
34	0xbdd56880	-0.104203224
35	0x3e2cacff	0.16862868

encoder.conv3.lin_r.bias f4 [6]
0	0x3d1b373d	0.037894476
1	0xbcb046f0	-0.0215182
2	0xbe70cc36	-0.235154
3	0xbcad4fbd	-0.021156186
4	0x3d5bdaf7	0.053675618
5	0x3e01a4e3	0.12660556

encoder.conv3.lin_edge.weight f4 [6, 1]
0	0xbf9182b7	-1.1368016
1	0xbf0cb94d	-0.54970247
2	0x3f925a56	1.1433818
3	0x3f4c767e	0.79868305
4	0x3f8270a2	1.0190623
5	0xbf62c028	-0.8857446

encoder.lin3.weight f4 [6, 6]
0	0x3e8f36c3	0.27971467
1	0x3e84afb9	0.25915316
2	0x3dce171e	0.10063003
3	0xbb49b9bd	-0.0030780875
4	0x3e2f8a52	0.17142609
5	0x3e733d3c	0.23753828
6	0x3ef3a733	0.475885
7	0x3ee54858	0.44781756
8	0xbeb1c9d6	-0.347243
9	0x3f49f189	0.7888418
10	0x3ef9bdd6	0.48777646
11	0xbe6f7cfb	-0.2338752
12	0xbe133f0a	-0.14379516
13	0x3d840ba6	0.06447534
14	0x3e74ba7b	0.23899262
15	0x3d6604b4	0.05615683
16	0x3d9dbc20	0.077018976
17	0x3e96a6bb	0.2942408
18	0x3e8c785e	0.27435583
19	0x3e731d10	0.23741555
20	0xbe8614e4	-0.26187813
21	0xbd11b931	-0.035577003
22	0x3d82ac0c	0.063804716
23	0x3e822d9e	0.25425428
24	0x3e55301d	0.20819135
25	0xbcb98ac0	-0.022649169
26	0x3d0969a1	0.033548
27	0x3d4c1c4e	0.04983168
28	0x3d7d2847	0.06180599
29	0x3eb7a11e	0.3586511
30	0x3d2633fa	0.040576912
31	0x3ea015f4	0.3126675
32	0xbe93fdb1	-0.2890449
33	0xbe2c7648	-0.16841996
34	0xbd56da73	-0.052454423
35	0x3e13ea3b	0.1444482

encoder.lin3.bias f4 [6]
0	0x3e1d31d9	0.15351047
1	0x3ec0ebd2	0.37679917
2	0x3d8b9e85	0.068173446
3	0x3ef79c54	0.48361456
4	0x3ea8ae5f	0.32945535
5	0x3ec848fd	0.39118186

encoder.conv4.att f4 [1, 1, 6]
0	0xbf01e7b4	-0.50744176
1	0x3e778e8c	0.24175471
2	0xbde549e9	-0.11195738
3	0x3e31b731	0.17355038
4	0x3f6842eb	0.9072711
5	0xbec82592	-0.39091164

encoder.conv4.bias f4 [6]
0	0x3d185946	0.037194513
1	0x3e9b7c5a	0.3036831
2	0x3b400642	0.0029300605
3	0xbcd31bb5	-0.025770048
4	0x3d08a0e4	0.033356562
5	0x3c094a6e	0.008379562

encoder.conv4.lin_l.weight f4 [6, 6]
0	0x3e4d3971	0.20041443
1	0xbf0382f6	-0.51371706
2	0x3e342f59	0.17596187
3	0xbe1f6bb8	-0.15568435
4	0x3c432cf4	0.011912573
5	0x3d884759	0.066542335
6	0xbe3e40bd	-0.18579383
7	0x3f235830	0.6380644
8	0xbe008d8e	-0.12553999
9	0xbdc7207f	-0.09722995
10	0xbecdd567	-0.40201876
11	0x3e03d72e	0.12875053
12	0x3f0f84ad	0.5606182
13	0x3e490ef2	0.19634607
14	0x3e39181c	0.18075603
15	0x3df2eece	0.11861955
16	0x3dd0c9ac	0.10194716
17	0x3df7aba1	0.120932825
18	0xbdc9af0c	-0.09847841
19	0xbc89465d	-0.016757185
20	0x3cc0eb73	0.023549771
21	0x3ecf5d91	0.40501073
22	0x3e9bf6b7	0.30461666
23	0x3d30bcf4	0.04314895
24	0x3eae92b8	0.34096313
25	0xbea0df8b	-0.3142055
26	0x3e56d1d3	0.20978479
27	0xbe9f6826	-0.31134146
28	0xbde99de0	-0.114070654
29	0xbe02142c	-0.12703007
30	0x3e9d9ea6	0.30785102
31	0xbe9f4cef	-0.31113383
32	0x3eb1cfaa	0.34728748
33	0xbdd64988	-0.10463244
34	0x3dd65fca	0.10467489
35	0xbdbf371f	-0.093366854

encoder.conv4.lin_l.bias f4 [6]
0	0x3eddcf16	0.43322057
1	0xbdd117f0	-0.10209644
2	0x3e7ef7ab	0.24899165
3	0x3e1f25fd	0.15541835
4	0xbdfab30d	-0.122411825
5	0x3d8fa593	0.07014003

encoder.conv4.lin_r.weight f4 [6, 6]
0	0xbdf0ab83	-0.11751463
1	0xbbe1abd7	-0.00688694
2	0xbdae8ecb	-0.08523329
3	0x3d8cbbe5	0.068717755
4	0x3d1da6a6	0.038489006
5	0x3e0e1622	0.1387563
6	0x3ac19b5b	0.0014771031
7	0x3d7146b0	0.058905303
8	0x3d4ecb99	0.050487135
9	0x3dd15c8e	0.102227315
10	0x3ddc09e9	0.10744078
11	0x3dafa723	0.08576801
12	0x33e9ff98	1.08964e-07
13	0x35259c48	6.169471e-07
14	0xb62a3288	-2.5361387e-06
15	0xb500f114	-4.803453e-07
16	0x35abb1d1	1.2792244e-06
17	0x3420ae34	1.4964536e-07
18	0x3cf772b0	0.030206054
19	0xbd6e03cd	-0.058109093
20	0x3cdf8501	0.0272851
21	0xbd69ec8e	-0.05711036
22	0xbce6eeb2	-0.02818999
23	0xbcece55e	-0.028917965
24	0xbca1a1e8	-0.019730523
25	0x3d1d96db	0.038473945
26	0xbca8ddc8	-0.020613566
27	0xbd17f1b4	-0.03709574
28	0xbdc0c877	-0.09413236
29	0xbd3ae2fe	-0.045626633
30	0xbe12e041	-0.14343359
31	0xbd7d121c	-0.06178485
32	0xbdabbd32	-0.083856955
33	0x3d445893	0.047936033
34	0x3cd04fb8	0.025428638
35	0x3d27ec41	0.040996794

encoder.conv4.lin_r.bias f4 [6]
0	0xbcb5fe04	-0.02221585
1	0x3d50feda	0.051024295
2	0xb4e63473	-4.2879e-07
3	0xbc868c01	-0.016424181
4	0xbe931caf	-0.2873282
5	0xbd1e4461	-0.03863943

encoder.conv4.lin_edge.weight f4 [6, 1]
0	0xbf212c03	-0.6295778
1	0xbd587241	-0.052843336
2	0xbe1dee45	-0.15422924
3	0x3e4eca16	0.20194277
4	0x3f7c4ee0	0.98557854
5	0xbf056566	-0.52107847

encoder.lin4.weight f4 [6, 6]
0	0x3d92797b	0.07152077
1	0x3dbbd7b7	0.09172004
2	0x3e4535cd	0.19258805
3	0xbe367092	-0.1781638
4	0xbcb00274	-0.021485545
5	0xbd8a85bd	-0.0676379
6	0xbdb3c6a3	-0.08778121
7	0x3e0b69f2	0.13614634
8	0xbea8bada	-0.32955056
9	0x3f2bc100	0.6709137
10	0x3e8c9083	0.27454004
11	0x3f31b474	0.69415975
12	0x3ee26226	0.44215506
13	0x3bef3d7c	0.0073010307
14	0x3ef157c2	0.47137266
15	0x3d5d5970	0.054040372
16	0x3e56dc10	0.20982385
17	0x3ea411d4	0.32044852
18	0xbe65cbe5	-0.22441061
19	0x3e469938	0.19394386
20	0xbe265438	-0.16243064
21	0x3e151d33	0.1456192
22	0x3d47a551	0.048741642
23	0xbc06a057	-0.008216939
24	0x3e0ff3b8	0.14057815
25	0x3de751d4	0.11294904
26	0x3d6f8dd0	0.058484852
27	0xbd218da9	-0.03944174
28	0x3afedd39	0.0019444592
29	0x3cdb278e	0.02675226
30	0x3e88a73d	0.26690093
31	0x3e22b881	0.15890695
32	0x3e38c99c	0.18045658
33	0xbf2af16d	-0.66774637
34	0xbf07df57	-0.53075165
35	0xbeb79bd7	-0.35861084

encoder.lin4.bias f4 [6]
0	0x3e4f7bd9	0.20262088
1	0x3e8c7562	0.27433306
2	0xbd34b354	-0.044116333
3	0xbce96289	-0.028489368
4	0x3dc71e0f	0.0972253
5	0x3e4db32b	0.20087878

decoder.lin1.weight f4 [12, 12]
0	0x3e42e395	0.19032128
1	0xbe86ae9c	-0.2630509
2	0xbdf678ae	-0.120347366
3	0xbc833da1	-0.016020598
4	0x3dd51176	0.10403721
5	0x3d34e196	0.044160448
6	0xbe460021	-0.19335987
7	0x3ef69e9f	0.48167893
8	0xbe0d70c8	-0.13812554
9	0xbda02f16	-0.07821481
10	0xbce82a9d	-0.028340632
11	0xbe73c3f9	-0.23805226
12	0x3d0febab	0.03513686
13	0xb74ee40d	-1.2331654e-05
14	0xba0a875e	-0.00052844535
15	0xb304c2f4	-3.0910954e-08
16	0xb8560201	-5.1023442e-05
17	0x3c182db4	0.00928824
18	0xbbd2e9ee	-0.006436578
19	0xb66f90f9	-3.569816e-06
20	0x3a563319	0.00081710663
21	0xb5267add	-6.201861e-07
22	0x3a0143e8	0.00049310783
23	0xbad2de26	-0.0016087934
24	0x3dc5a2a6	0.09650163
25	0x3e63f5b0	0.22261691
26	0x3ee16566	0.44022673
27	0x3e3c895c	0.18411773
28	0x3dcb6e96	0.09933202
29	0x3ea7eae5	0.32796398
30	0xbcd9cb0d	-0.02658608
31	0xbeca790b	-0.39545473
32	0xbe64164c	-0.2227413
33	0x3e043330	0.12910151
34	0x3c36b0eb	0.011150579
35	0x3e901d08	0.2814715
36	0x3e899700	0.26873016
37	0xbebfccf1	-0.37461045
38	0x3eacfbc5	0.33785835
39	0xbd84981e	-0.064743266
40	0x3e758059	0.23974742
41	0x3ec4b3f0	0.3841853
42	0x3e814e02	0.25254828
43	0xbf2652da	-0.6497017
44	0xbdf6b20f	-0.12045681
45	0x3b487d02	0.0030592089
46	0xbcf910e0	-0.030403554
47	0x3e43f283	0.1913548
48	0xbe53221f	-0.20618485
49	0xbdea92f0	-0.11453807
50	0xbecf34b6	-0.40469903
51	0xbebbb46b	-0.36661085
52	0xbe3cf519	-0.18452872
53	0xbebb1285	-0.36537567
54	0x3dcd7597	0.10032194
55	0x3eb069c5	0.34455696
56	0x3ece7051	0.40320066
57	0x3d219f2d	0.039458442
58	0x3e47c340	0.19508076
59	0x3e1ca1aa	0.15296045
60	0x3e96bdca	0.29441673
61	0xbed22deb	-0.41050658
62	0x3d3e1d5d	0.04641472
63	0xbe415323	-0.1887937
64	0x3e9a9d12	0.3019796
65	0x3e5e8f13	0.21734266
66	0xbe9068ca	-0.28204948
67	0x3f274a8f	0.6534814
68	0xbe4ad4ac	-0.1980769
69	0xbe6a40c8	-0.22876275
70	0xbd34cfd9	-0.04414353
71	0xbe8e9c72	-0.27853733
72	0x380cef20	3.3601304e-05
73	0x3d61d02f	0.05513018
74	0x3c1fec4b	0.0097609265
75	0x3d7ce040	0.0617373
76	0xb9ff9af5	-0.00048752842
77	0xbc11bdaa	-0.008895317
78	0x3a884629	0.0010396886
79	0xbabaa074	-0.0014238493
80	0xbd5af2f6	-0.05345436
81	0xbd976aea	-0.07393439
82	0x3c64175a	0.013921583
83	0xbcece2df	-0.028916774
84	0xbcdf6b8e	-0.027272966
85	0xbbc8d2d0	-0.0061286464
86	0xbc37a40b	-0.0112085445
87	0xbba6492a	-0.00507464
88	0xbadeac9b	-0.0016988696
89	0xbb4a64f2	-0.0030882922
90	0x3c9dc5a0	0.019259274
91	0xbd17571f	-0.03694832
92	0xbca76092	-0.02043179
93	0x39a90599	0.00032238362
94	0xbb9f1024	-0.004854219
95	0xbc03b5a6	-0.008038914
96	0x3e334342	0.17506126
97	0x3e4aa993	0.1979125
98	0x3eca73bd	0.39541426
99	0x3e127778	0.14303386
100	0x3c645d8a	0.013938317
101	0x3eb83f11	0.35985616
102	0xbd5a9c2c	-0.053371593
103	0xbe538f29	-0.2066008
104	0xbe737935	-0.23776706
105	0x3d85109d	0.06497309
106	0x3d7109eb	0.05884735
107	0x3e92a63d	0.28642455
108	0x3ded64e6	0.115915105
109	0xbe912d13	-0.283547
110	0xbd8d591b	-0.06901761
111	0xbe9bf5bd	-0.3046092
112	0x3e7a8bf1	0.24467446
113	0x3e10c97a	0.14139357
114	0xbea3c4fa	-0.3198622
115	0x3f18ecf9	0.5973659
116	0xbe024a44	-0.12723643
117	0xbe4b75a6	-0.19869098
118	0x3db1ba80	0.0867815
119	0xbe4a13c9	-0.1973411
120	0x3e00f414	0.12593108
121	0xbeb90297	-0.36134788
122	0xbe6902ab	-0.22754924
123	0xbe33df4b	-0.17565648
124	0x3d98dc8a	0.074639395
125	0xbe26c0f0	-0.16284537
126	0xbc1996b3	-0.009374308
127	0x3ead97b7	0.33904812
128	0x3e7a760c	0.24459094
129	0xbd5b210a	-0.053498305
130	0x3e0b18c9	0.13583674
131	0xbd8d60cf	-0.069032304
132	0x3dd82e34	0.105556875
133	0x3d88e640	0.06684542
134	0x3e67bd44	0.22630793
135	0x3ce2e96c	0.027699195
136	0xbb93ede9	-0.004514445
137	0x3dfc43c2	0.12317611
138	0x3e3d23d3	0.18470697
139	0xbe9a2ce9	-0.3011239
140	0x3dd00477	0.101571016
141	0xbbaeee70	-0.0053384826
142	0x3d65449f	0.055973645
143	0x3e48f13c	0.19623274

decoder.lin1.bias f4 [12]
0	0x3dd99172	0.106234446
1	0xbe1f0726	-0.1553007
2	0xbd4f4745	-0.050605077
3	0x3e0d9bd2	0.13828972
4	0x3e60c0d5	0.2194856
5	0x3e6e893d	0.2329454
6	0x3cb6a1b5	0.022293905
7	0x3cb3a8d6	0.021931093
8	0x3abb6a95	0.0014298732
9	0x3ea3cb7d	0.31991187
10	0x3c82046f	0.015871255
11	0x3e1026c7	0.14077292

decoder.lin2.weight f4 [1, 12]
0	0xbf05847c	-0.5215528
1	0xbc8fa67f	-0.017535446
2	0x3f164091	0.5869227
3	0x3ef1a109	0.47193173
4	0xbf522d51	-0.821004
5	0xbf3f4349	-0.74712044
6	0xbde3f869	-0.11131365
7	0xbc07bae2	-0.008284302
8	0x3ef09c25	0.4699413
9	0xbf23d04e	-0.6398972
10	0xbee5d196	-0.44886464
11	0x3e475173	0.19464664
