checkpoint.pt (torch, 6178 bytes, 12 tensors)

encoder.convs.0.lin_l.weight f4 [4, 1]
000000 c4 07 53 bf 4b ea 3a bf 13 84 d6 be ba 2c 17 bf
       -0.82433724 -0.7301375 -0.4189764 -0.5905262

encoder.convs.0.lin_l.bias f4 [4]
000000 ab c3 09 bf b5 31 31 be 4f c7 2d bf 36 79 d5 be
       -0.5381419 -0.17304118 -0.67882246 -0.4169404

encoder.convs.0.lin_r.weight f4 [4, 1]
000000 ec d3 57 3d ba e8 9c 3e 08 c4 99 be 9b 67 18 3f
       0.05269234 0.30646306 -0.30032372 0.5953309

encoder.convs.1.lin_l.weight f4 [4, 4]
000000 dd 6a 34 bc db 55 3a be 7b 01 34 be a7 e6 8a 3e
       -0.011011806 -0.18196814 -0.1757869 0.271291
000010 fc b9 4d be f8 d8 54 bd e9 5d 8d 3d 0e 47 11 be
       -0.20090479 -0.05196473 0.069026776 -0.14187261
000020 27 b7 bb bc bd d1 d6 3d 32 9b 90 3e dc b2 88 3c
       -0.022914482 0.10489223 0.28243405 0.01668685
000030 93 76 ca 3c d6 54 06 3d 39 48 a5 bd b7 dc a9 bc
       0.024714744 0.03279575 -0.08070416 -0.020735128

encoder.convs.1.lin_l.bias f4 [4]
000000 78 27 84 be 8e 23 3f 3e 2c 26 6d 3e 08 3b dd bd
       -0.25811362 0.18665907 0.23159093 -0.10802275

encoder.convs.1.lin_r.weight f4 [4, 4]
000000 b9 49 f9 bb 63 33 8e bc 17 b2 e1 3d 91 ce 34 3d
       -0.0076076654 -0.017358487 0.11020296 0.04414231
000010 f7 2f 87 3c d8 bb f6 3a 46 88 b5 3b 39 ce f8 3d
       0.016502364 0.0018824292 0.0055399267 0.12148709
000020 ba 53 49 3e 8b 1a 63 3c 89 05 41 3e 60 2a 62 be
       0.19660845 0.013861309 0.18849768 -0.22086477
000030 52 3a 63 3b 3f 8b b1 3d d1 d3 83 3e 6a 28 a1 3e
       0.0034672213 0.08669137 0.2574754 0.31476146

encoder.convs.2.lin_l.weight f4 [6, 4]
000000 03 5a c5 bc 34 8f f2 3c ef 6e 25 3f 1b ed 34 3d
       -0.024090772 0.0296093 0.64622396 0.044171434
000010 48 5f a3 3e de 4f a9 3e b7 23 89 3e 6e 16 f4 bd
       0.3190863 0.33068746 0.2678506 -0.119183406
000020 89 8e 08 bd 6f 39 47 3e e8 08 84 3e 40 ea b1 be
       -0.033339057 0.19455503 0.25788045 -0.3474903
000030 b8 46 1e bb 6f 6b a6 3e da e5 c9 3c ec 6a cb 3c
       -0.0024151038 0.3250384 0.024645735 0.024831258
000040 9f 38 6f bb b1 c4 5f 3d 4c 2c 0e be 32 50 ce 3c
       -0.0036502255 0.05463094 -0.13884085 0.025184724
000050 08 a7 9f be f4 18 8e 3b 1a 66 60 be e0 47 08 be
       -0.31182122 0.0043364707 -0.21913949 -0.13308668

encoder.convs.2.lin_l.bias f4 [6]
000000 9c 33 e8 3e 4b 27 8c bd 68 88 66 3e 72 5e dd 3d
       0.45351875 -0.06843432 0.22512972 0.1080903
000010 1e 8f 2f 3e 84 00 5e bd
       0.17144439 -0.05419971

encoder.convs.2.lin_r.weight f4 [6, 4]
000000 7f 27 ac be dd 36 97 be 94 0a 9f 3e d0 68 82 ba
       -0.33623883 -0.29534045 0.31062758 -0.000994945
000010 d2 5a e0 bd ec 43 1e 3e 87 42 c2 be 6f ff 81 3d
       -0.109548226 0.15455598 -0.3794138 0.06347548
000020 31 63 9e be 49 27 ce 3e 22 2f c8 3e eb 80 9f be
       -0.30935052 0.40264347 0.3909846 -0.31153044
000030 cc c8 a3 3e 97 79 e6 bd 7f 4d 42 be 09 5d 02 be
       0.31989133 -0.1125366 -0.18974875 -0.12730803
000040 80 25 20 be 98 64 7c 3e 37 a1 b0 3e 81 1d 95 be
       -0.15639305 0.24647748 0.34497997 -0.29124072
000050 ec bf 4a 3d ac 07 65 be 47 eb 93 3e 51 97 af 3e
       0.049499437 -0.22366208 0.2889044 0.34295133

decoder.lin1.weight f4 [12, 12]
000000 05 50 a6 bc e4 56 6a 3c d2 f9 a9 3d 80 97 1f 3c
       -0.020301828 0.014302943 0.082996026 0.00974071
000010 da 03 9c bb 11 95 a8 bd aa 45 65 3d 7e 3f a4 bc
       -0.0047612013 -0.08231557 0.05597464 -0.020049807
000020 c8 f0 8b bc 3c 19 0d be 3e 5a 11 3d 62 fc 47 bd
       -0.017082587 -0.13779157 0.035486452 -0.048824675
000030 74 5b d5 3e 19 e4 f9 bd f9 ca 9f 3e c3 83 fd 3d
       0.41671336 -0.12201709 0.31209543 0.12378647
000040 f2 74 0c bd b0 3f 0f 3b 3f 45 d7 3e b8 61 91 bd
       -0.034291215 0.002185803 0.42045018 -0.070987165
000050 b7 b7 86 3e 5d 68 bf 3e af 3f 84 3e 9d d4 24 be
       0.26312038 0.3738431 0.25829837 -0.1609673
000060 f2 f6 6e be 63 6c 1a 3e cf 16 9c be 2e 1e 32 be
       -0.2333639 0.15080409 -0.30486152 -0.17394325
000070 7c 05 fa bd a2 69 1f be 4a 5f 33 3e ff d6 fb bd
       -0.12208077 -0.1556764 0.17516819 -0.122968666
000080 ec 80 4c 3c 65 b0 10 3e 03 c4 27 be f2 e4 17 be
       0.012481909 0.14129789 -0.16383366 -0.1483343
000090 c2 c6 cb bc b4 ca e1 bd 40 fa 6c 3a 94 7b f8 bd
       -0.024875049 -0.11024991 0.00090399757 -0.12132946
0000a0 ad a8 c2 3c 6e a4 ea 3a 06 f6 78 3b 67 58 a1 3c
       0.023762072 0.0017901787 0.0037988438 0.019695474
0000b0 12 54 a9 bb 00 13 9f 3c 06 e6 2d bd 43 45 5b 3d
       -0.0051674927 0.01941824 -0.042455696 0.05353285
0000c0 1c 1e 7e bd 8d ce b4 3c 76 67 c2 bd be 22 aa bd
       -0.062040433 0.022071147 -0.0949239 -0.08307408
0000d0 ce f4 85 3d 92 bb ee 3b b8 03 42 bc a8 c0 8b 3b
       0.065408334 0.0072855437 -0.011841707 0.00426491
0000e0 aa e3 bc bd aa e3 0f be 8e 68 2b bd 3d 65 41 3c
       -0.09223111 -0.1405169 -0.041847758 0.011803922
0000f0 8a b9 56 be 24 60 20 3e fa 6d e4 bd 01 62 21 3e
       -0.20969215 0.15661675 -0.11153789 0.15760042
000100 56 6b 43 be ed 12 8e 3d 0e 46 94 be 90 a9 9e bd
       -0.19083914 0.069372036 -0.28959697 -0.07747185
000110 77 1b f1 3b bd e9 13 3e e7 6c 9e be b7 66 a2 bd
       0.0073580104 0.14444633 -0.3094246 -0.079297476
000120 68 12 a9 be 6e e5 c2 3d 44 b7 ff 3d 72 70 8b 3d
       -0.33021855 0.095164165 0.12486127 0.068085566
000130 7d 0f 0a 3e ae 06 b7 bd 6e 0f a2 bd d1 6b c3 3d
       0.13482471 -0.08936821 -0.07913099 0.09542049
000140 db f2 76 bd 7b 04 50 be c2 b4 51 be b5 5f c3 3d
       -0.0602902 -0.20314209 -0.2047911 0.09539739
000150 a8 cb 36 be ca f9 f2 bd 86 c3 53 3e 49 16 1a be
       -0.17851126 -0.1186405 0.20680055 -0.15047564
000160 d5 4f c9 bd c6 41 0a 3e f0 c3 c8 3d 03 84 84 3e
       -0.0982968 0.13501653 0.09802997 0.25881967
000170 4b f9 e7 bd 92 9a 44 3e 47 ca 25 bd 2f db 02 bd
       -0.11326846 0.19199589 -0.04047611 -0.03194731
000180 c0 d8 ee 3c 7b 1a 9d bd 34 a8 a7 bd 69 a0 08 be
       0.029156089 -0.076710664 -0.08186379 -0.13342442
000190 5c 3e 98 bd f6 8c 84 3d 18 39 a8 3d 54 52 d8 bd
       -0.07433769 0.06472199 0.08214015 -0.10562578
0001a0 73 82 b9 bd a0 0c df 39 90 37 cc 3d ce 1a af bd
       -0.09058084 0.0004254328 0.09971535 -0.085500345
0001b0 6c 48 ce bb a6 fe 50 be ae 08 10 3d f9 75 65 bc
       -0.0062952545 -0.2040964 0.035164528 -0.014005178
0001c0 db 3d 30 3e 16 f1 e4 bd b3 de 8d 3e e1 fe 5e be
       0.17211096 -0.11178796 0.2770897 -0.21776916
0001d0 16 c7 1f be 1d 31 35 3e fc 38 9f bd 25 d5 97 bd
       -0.15603289 0.17694516 -0.07774541 -0.07413701
0001e0 34 02 c5 3c 16 18 3a bc a1 04 d6 bd 8f 59 5c 3b
       0.024048902 -0.011358282 -0.10450102 0.0033622717
0001f0 3b ea e8 3d 90 14 9c 3b fa 81 89 bd 50 d9 15 3c
       0.11372801 0.0047631934 -0.06714244 0.00914605
000200 13 4b 76 3d 94 8d a5 bc 68 99 6c bb d5 b7 ca 3c
       0.06013019 -0.020209111 -0.003610218 0.024745861
000210 81 a7 18 be 88 78 0a 3e 90 21 1d 3e 77 96 13 be
       -0.14907648 0.13522542 0.15344834 -0.14412867
000220 32 e0 b5 3d 6c 93 fd bc 08 1c 3b 3e ac d0 3d 3d
       0.088806525 -0.030954085 0.18272412 0.046341583
000230 f2 ff f2 3d 01 44 e4 3d 32 63 0b 3e 0e cd 67 bd
       0.11865224 0.11145783 0.13612059 -0.05659204

decoder.lin1.bias f4 [12]
000000 8f b5 da bd 23 5b 50 3e 96 61 d5 bc ee 4c cc bd
       -0.10679161 0.20347266 -0.02604751 -0.09975611
000010 1a f4 c2 bc 26 a9 14 3e e8 2a d5 bd f3 4a a3 3e
       -0.023798037 0.1451765 -0.10408574 0.3189312
000020 d3 ac 8e bd 22 00 02 3e fc 04 ea bc 08 7e 82 3e
       -0.06966557 0.12695363 -0.02856683 0.2548678

decoder.lin2.weight f4 [1, 12]
000000 ec 17 91 bc 21 d6 80 3e 48 50 2e be fc 5c ca bc
       -0.017711602 0.25163367 -0.17022812 -0.024702542
000010 4a 5a 77 bb 6f ef c7 bd f5 a4 5e bd 28 c0 cd 3d
       -0.0037743025 -0.09762465 -0.054356534 0.100464165
000020 03 f8 13 3d f2 b0 c0 3d 30 10 f9 3b 5e 86 e7 3d
       0.036125194 0.0940875 0.0076008067 0.113049254
